…
_updates': 10000, 'warmup_init_lr': -1.0, 'lr': [0.002]}, 'scoring': {'_name': 'bleu', 'pad': 1, 'eos': 2, 'unk': 3}, 'bpe': None, 'tokenizer': None, 'ema': {'_name': None, 'store_ema': False, 'ema_decay': 0.9999, 'ema_start_update': 0, 'ema_seed_model': None, 'ema_update_freq': 1, 'ema_fp32': False}, 'simul_type': None}
2024-02-06 12:46:10 | INFO | fairseq.tasks.speech_to_text | dictionary size (spm.asr.txt): 5,000
2024-02-06 12:46:14 | INFO | fairseq_cli.train | S2TConformerModel(
  (encoder): S2TConformerEncoder(
    (subsample): Conv1dSubsampler(
      (conv_layers): ModuleList(
        (0): Conv1d(80, 1024, kernel_size=(5,), stride=(2,), padding=(2,))
        (1): Conv1d(512, 512, kernel_size=(5,), stride=(2,), padding=(2,))
      )
    )
    (embed_positions): RelPositionalEncoding()
    (linear): Linear(in_features=256, out_features=256, bias=True)
    (dropout): Dropout(p=0.1, inplace=False)
    (conformer_layers): ModuleList(
      (0-15): 16 x ConformerEncoderLayer(
        (ffn1): FeedForwardModule(
          (layer_norm): LayerNorm((256,), eps=1e-05, elementwise_affine=True)
          (w_1): Linear(in_features=256, out_features=2048, bias=True)
          (w_2): Linear(in_features=2048, out_features=256, bias=True)
          (dropout1): Dropout(p=0.1, inplace=False)
          (dropout2): Dropout(p=0.1, inplace=False)
          (activation): SiLU(inplace=True)
        )
        (self_attn_layer_norm): LayerNorm((256,), eps=1e-05, elementwise_affine=True)
        (self_attn_dropout): Dropout(p=0.1, inplace=False)
        (self_attn): RelPositionMultiHeadedAttention(
          (linear_q): Linear(in_features=256, out_features=256, bias=True)
          (linear_k): Linear(in_features=256, out_features=256, bias=True)
          (linear_v): Linear(in_features=256, out_features=256, bias=True)
          (linear_out): Linear(in_features=256, out_features=256, bias=True)
          (dropout): Dropout(p=0.1, inplace=False)
          (linear_pos): Linear(in_features=256, out_features=256, bias=False)
        )
        (conv_module): ConvolutionModule(
          (layer_norm): LayerNorm((256,), eps=1e-05, elementwise_affine=True)
          (pointwise_conv1): Conv1d(256, 512, kernel_size=(1,), stride=(1,), bias=False)
          (glu): GLU(dim=1)
          (depthwise_conv): Conv1d(256, 256, kernel_size=(31,), stride=(1,), padding=(15,), groups=256, bias=False)
          (batch_norm): BatchNorm1d(256, eps=1e-05, momentum=0.1, affine=True, track_running_stats=True)
          (activation): SiLU(inplace=True)
          (pointwise_conv2): Conv1d(256, 256, kernel_size=(1,), stride=(1,), bias=False)
          (dropout): Dropout(p=0.1, inplace=False)
        )
        (ffn2): FeedForwardModule(
          (layer_norm): LayerNorm((256,), eps=1e-05, elementwise_affine=True)
          (w_1): Linear(in_features=256, out_features=2048, bias=True)
          (w_2): Linear(in_features=2048, out_features=256, bias=True)
          (dropout1): Dropout(p=0.1, inplace=False)
          (dropout2): Dropout(p=0.1, inplace=False)
          (activation): SiLU(inplace=True)
        )
        (final_layer_norm): LayerNorm((256,), eps=1e-05, elementwise_affine=True)
      )
    )
  )
  (decoder): TransformerDecoderScriptable(
    (dropout_module): FairseqDropout()
    (embed_tokens): Embedding(5000, 256, padding_idx=1)
    (embed_positions): SinusoidalPositionalEmbedding()
    (layers): ModuleList(
      (0-5): 6 x TransformerDecoderLayerBase(
        (dropout_module): FairseqDropout()
        (self_attn): MultiheadAttention(
          (dropout_module): FairseqDropout()
          (k_proj): Linear(in_features=256, out_features=256, bias=True)
          (v_proj): Linear(in_features=256, out_features=256, bias=True)
          (q_proj): Linear(in_features=256, out_features=256, bias=True)
          (out_proj): Linear(in_features=256, out_features=256, bias=True)
        )
        (activation_dropout_module): FairseqDropout()
        (self_attn_layer_norm): LayerNorm((256,), eps=1e-05, elementwise_affine=True)
        (encoder_attn): MultiheadAttention(
          (dropout_module): FairseqDropout()
          (k_proj): Linear(in_features=256, out_features=256, bias=True)
          (v_proj): Linear(in_features=256, out_features=256, bias=True)
          (q_proj): Linear(in_features=256, out_features=256, bias=True)
          (out_proj): Linear(in_features=256, out_features=256, bias=True)
        )
        (encoder_attn_layer_norm): LayerNorm((256,), eps=1e-05, elementwise_affine=True)
        (fc1): Linear(in_features=256, out_features=2048, bias=True)
        (fc2): Linear(in_features=2048, out_features=256, bias=True)
        (final_layer_norm): LayerNorm((256,), eps=1e-05, elementwise_affine=True)
      )
    )
    (layer_norm): LayerNorm((256,), eps=1e-05, elementwise_affine=True)
    (output_projection): Linear(in_features=256, out_features=5000, bias=False)
  )
)
2024-02-06 12:46:14 | INFO | fairseq_cli.train | task: SpeechToTextTask
2024-02-06 12:46:14 | INFO | fairseq_cli.train | model: S2TConformerModel
2024-02-06 12:46:14 | INFO | fairseq_cli.train | criterion: LabelSmoothedCrossEntropyCriterion
2024-02-06 12:46:14 | INFO | fairseq_cli.train | num. shared model params: 54,758,144 (num. trained: 54,758,144)
…
